…
The model is compiled using the Adam optimizer and cross_categorical entropy loss function. The summary here gives us an idea of the shape of each layer and the no. of parameters to be trained at each layer. The total parameters that will be trained by the model are 3370307

model.compile(optimizer = adam(),
              loss= keras.losses.categorical_crossentropy,
              metrics= ['accuracy'])
print(model.summary())
Model: "sequential"
_________________________________________________________________
 Layer (type)                Output Shape              Param #   
=================================================================
 conv2d (Conv2D)             (None, 98, 98, 32)        896       
                                                                 
 max_pooling2d (MaxPooling2  (None, 49, 49, 32)        0         
 D)                                                              
                                                                 
 conv2d_1 (Conv2D)           (None, 47, 47, 64)        18496     
                                                                 
 max_pooling2d_1 (MaxPoolin  (None, 23, 23, 64)        0         
 g2D)                                                            
                                                                 
 conv2d_2 (Conv2D)           (None, 21, 21, 128)       73856     
                                                                 
 max_pooling2d_2 (MaxPoolin  (None, 20, 20, 128)       0         
 g2D)                                                            
                                                                 
 dropout (Dropout)           (None, 20, 20, 128)       0         
                                                                 
 flatten (Flatten)           (None, 51200)             0         
                                                                 
 dense (Dense)               (None, 64)                3276864   
                                                                 
 dropout_1 (Dropout)         (None, 64)                0         
                                                                 
 dense_1 (Dense)             (None, 3)                 195       
                                                                 
=================================================================
Total params: 3370307 (12.86 MB)
Trainable params: 3370307 (12.86 MB)
Non-trainable params: 0 (0.00 Byte)
_________________________________________________________________
None
epochs = 50
cnn = model.fit(trainX, trainY, validation_data = (valX, valY), epochs=epochs,
…
